…
ss="o"&gt;=&lt;/span&gt; &lt;span class="s1"&gt;&amp;#39;softmax&amp;#39;&lt;/span&gt;&lt;span class="p"&gt;))&lt;/span&gt;

&lt;span class="n"&gt;model&lt;/span&gt;&lt;span class="o"&gt;.&lt;/span&gt;&lt;span class="n"&gt;summary&lt;/span&gt;&lt;span class="p"&gt;()&lt;/span&gt;
&lt;/pre&gt;&lt;/div&gt;


&lt;div class="highlight"&gt;&lt;pre&gt;&lt;span&gt;&lt;/span&gt;_________________________________________________________________
Layer (type)                 Output Shape              Param #   
=================================================================
conv2d_5 (Conv2D)            (None, 222, 222, 32)      896       
_________________________________________________________________
max_pooling2d_5 (MaxPooling2 (None, 111, 111, 32)      0         
_________________________________________________________________
conv2d_6 (Conv2D)            (None, 109, 109, 32)      9248      
_________________________________________________________________
max_pooling2d_6 (MaxPooling2 (None, 54, 54, 32)        0         
_________________________________________________________________
conv2d_7 (Conv2D)            (None, 52, 52, 64)        18496     
_________________________________________________________________
max_pooling2d_7 (MaxPooling2 (None, 26, 26, 64)        0         
_________________________________________________________________
conv2d_8 (Conv2D)            (None, 24, 24, 128)       73856     
_________________________________________________________________
max_pooling2d_8 (MaxPooling2 (None, 12, 12, 128)       0         
_________________________________________________________________
global_average_pooling2d_2 ( (None, 128)               0         
_________________________________________________________________
dense_3 (Dense)              (None, 256)               33024     
_________________________________________________________________
dense_4 (Dense)              (None, 133)               34181     
=================================================================
Total params: 169,701
Trainable params: 169,701
Non-trainable params: 0
_________________________________________________________________
&lt;/pre&gt;&lt;/div&gt;


&lt;div class="highlight"&gt;&lt;pre&gt;&lt;span&gt;&lt;/span&gt;&lt;span class="n"&gt;model&lt;/span&gt;&lt;span class="o"&gt;.&lt;/span&gt;&lt;span class="n"&gt;
…
